tutorials/02-intermediate/convolutional_neural_network/model.ckpt (torch_old, 118948 bytes, 14 tensors)

layer1.0.weight f4 [16, 1, 5, 5]
-0.16062045 0.12662424 0.13335226 0.07017405 -0.110741936 0.023316655 0.039217923 -0.038447496
0.13298121 0.05045872 -9.358877e-05 -0.11802481 0.06906453 0.08875752 -0.18064274 -0.22840747
-0.077022195 0.13530879 0.24977964 -0.13990353 -0.09023372 -0.14998631 -0.17413296 0.09975612
0.1480551 0.066614345 0.090795115 -0.03754878 -0.046543457 0.109982245 -0.15697947 0.08338776
0.21551895 0.15817422 -0.19873163 0.08954674 -0.024600383 -0.15524389 0.09267623 -0.003845704
0.028881406 -0.16601008 -0.20960954 0.1070963 0.012696065 0.11524892 -0.1271883 -0.10505612
-0.06084271 0.103982404 -0.1357692 -0.14493228 -0.15201844 -0.1863427 -0.07532603 0.0553012
-0.021480892 0.06501697 -0.13048466 -0.15681796 0.22358279 0.10282766 0.1945872 0.17967092
-0.1503056 -0.08144243 -0.14044143 -0.047945864 -0.023224266 -0.08041951 0.07079128 0.011444984
-0.020286005 0.17292345 0.1813154 -0.10010181 0.1354257 0.23652047 0.12936673 0.1237197
-0.10747542 0.081063755 -0.17079276 -0.0975171 -0.090580195 0.03733572 0.047395006 -0.035288215
-0.19153126 -0.049271695 -0.093002975 -0.12206979 -0.002563404 -0.16042292 0.08745155 0.17795475
0.07902772 0.13539852 0.12684649 0.17069882 -0.0022453344 0.10014553 0.023978082 -0.09308763
0.112711735 0.2205618 0.19613428 0.18024024 0.112248935 -0.14436586 -0.13110235 -0.051983256
-0.04267989 -0.18805657 -0.02171167 0.0047889766 -0.1840643 -0.12096472 -0.13797209 -0.12428981
0.0108734155 -0.1424915 -0.091331765 -0.11797538 0.16405128 0.06400194 -0.06731897 -0.015656918
0.17249969 0.067188606 -0.15985285 0.10734438 -0.20326962 -0.17626847 -0.09565043 0.11604857
0.08100967 0.002779585 -0.111760564 -0.07294623 -0.17531703 -0.14290653 0.22927001 0.19466801
0.040142726 0.17464794 0.012508952 -0.11875183 0.0021869594 0.014446088 0.078062184 -0.019385505
0.009488223 0.15353477 -0.084309354 -0.10314533 0.21318874 0.06664096 -0.1478974 -0.13685611
0.15123062 -0.21427372 -0.2156678 -0.19904768 -0.048623573 -0.2676824 -0.072526135 -0.1856586
0.035597246 0.03947432 -0.22066289 -0.106061354 -0.07870537 0.23621157 0.18043458 0.12854196
0.07261319 -0.12586187 -0.17207891 -0.012474841 0.17963447 -0.15087211 -0.10874192 -0.112487964
0.12025854 0.10431828 -0.08900843 -0.12532307 -0.17999338 0.20284265 0.12880346 -0.07048252
-0.18056203 -0.095239684 0.19038543 0.088629656 -0.15084052 -0.0729883 -0.0037930938 0.09292233
0.011003589 -0.06840164 0.12984934 -0.06433325 -0.00063442165 -0.016645024 -0.07881877 -0.16107151
-0.097876936 0.032548815 -0.01908545 0.19477017 -0.20716736 -0.10069545 -0.05988972 0.14057113
0.101649806 0.02845777 -0.16670883 -0.06584112 -0.042376213 0.2297304 -0.06373651 -0.027737474
-0.18860275 -0.1879376 0.077201374 -0.2058587 0.0039388184 0.059848852 0.19906545 0.014372032
-0.007707006 0.0013644331 0.2282274 -0.048533473 0.10339526 -0.14565623 0.023927247 0.01651687
-0.066830054 -0.06701175 -0.011780857 -0.14537875 0.10838612 -0.15858842 -0.02022419 -0.15420935
-0.22804005 -0.20081566 0.13300972 0.17965688 0.13020934 0.120591216 0.13439885 -0.1377431
00000000: b079 24be c9a9 013e 7f8d 083e 6ab7 8f3d
00000010: abcc e2bd 9202 bf3c f9a2 203d 1f7b 1dbd
00000020: 3a2c 083e cead 4e3d 1745 c4b8 feb6 f1bd
00000030: b471 8d3d 81c6 b53d 69fa 38be a6e3 69be
00000040: d0bd 9dbd 638e 0a3e 3cc6 7f3e df42 0fbe
00000050: 75cc b8bd 0396 19be e94f 32be f04c cc3d
00000060: c29b 173e 1a6d 883d caf2 b93d c0cc 19bd
00000070: 5aa4 3ebd 5f3e e13d 3abf 20be 34c7 aa3d
00000080: 00b1 5c3e 6cf8 213e 4e80 4bbe 4864 b73d
00000090: be86 c9bc 41f8 1ebe 09cd bd3d 3508 7cbb
000000a0: b398 ec3c 8cfe 29be e2a3 56be 4e55 db3d
000000b0: 2803 503c a007 ec3d a63d 02be aa27 d7bd
000000c0: 3536 79bd baf4 d43d 1507 0bbe 2169 14be
000000d0: b9aa 1bbe 9fd0 3ebe 8944 9abd 8383 623d
000000e0: b2f8 afbc 9e27 853d c59d 05be e394 20be
000000f0: e3f2 643e 4f97 d23d de41 473e a7fb 373e
00000100: b6e9 19be 4acb a6bd e1cf 0fbe e262 44bd
00000110: d140 bebc fcb2 a4bd 05fb 903d be83 3b3c
00000120: d62e a6bc d812 313e bfaa 393e 2e02 cdbd
00000130: 09ad 0a3e 6c32 723e b678 043e c160 fd3d
00000140: 131c dcbd c104 a63d 4ce4 2ebe 0cb7 c7bd
00000150: 1c82 b9bd 57ed 183d 4421 423d 608a 10bd
00000160: c520 44be 1ed1 49bd 5878 bebd baff f9bd
00000170: c8fe 27bb e845 24be cc19 b33d c539 363e
00000180: 49d9 a13d e9a5 0a3e 0ce4 013e accb 2e3e
00000190: 7626 13bb 1a19 cd3d af6d c43c baa4 bebd
000001a0: 69d5 e63d f4da 613e 6dd7 483e e690 383e
000001b0: c5e2 e53d a5d4 13be b23f 06be 65ec 54bd
000001c0: 1cd1 2ebd e791 40be acdc b1bc d9ec 9c3b
000001d0: 5a7b 3cbe 5abc f7bd 8e48 0dbe a88b febd
000001e0: 6926 323c 4be9 11be 260c bbbd 139d f1bd
000001f0: 0ffd 273e 7313 833d 87de 89bd f042 80bc
00000200: c2a3 303e 2e9a 893d 77b0 23be 5fd7 db3d
00000210: e925 50be b97f 34be 5fe4 c3bd dfaa ed3d
00000220: 66e8 a53d b329 363b b9e2 e4bd d564 95bd
00000230: 4f86 33be 1756 12be c2c5 6a3e 0d57 473e
00000240: b36c 243d e9d6 323e 59f2 4c3c 2934 f3bd
00000250: 1753 0f3b 49af 6c3c 11df 9f3d 5ace 9ebc
00000260: 7e74 1b3c 3838 1d3e 62aa acbd dc3d d3bd
00000270: 264e 5a3e 0e7b 883d 6b72 17be 0224 0cbe
00000280: 33dc 1a3e 926a 5bbe 05d8 5cbe 28d3 4bbe
00000290: 8329 47bd ab0d 89be 9588 94bd 4a1d 3ebe
000002a0: 6bce 113d d3af 213d 74f5 61be b236 d9bd
000002b0: 4830 a1bd 72e1 713e d8c3 383e 81a0 033e
000002c0: 39b6 943d efe1 00be 7435 30be 4763 4cbc
000002d0: 19f2 373e 387e 1abe 15b4 debd 1760 e6bd
000002e0: 1c4a f63d d3a4 d53d 0d4a b6bd b154 00be
000002f0: 2f50 38be fcb5 4f3e 0ee5 033e 2459 90bd
00000300: 41e5 38be 060d c3bd 66f4 423e 7783 b53d
00000310: f075 1abe e47a 95bd 8e95 78bb 104e be3d
00000320: 6648 343c 2916 8cbd 3af7 043e 27c1 83bd
00000330: 514f 26ba 255b 88bc bc6b a1bd eeef 24be
00000340: b473 c8bd e851 053d 1759 9cbc d571 473e
00000350: ae23 54be 6b39 cebd ec4e 75bd e1f1 0f3e
00000360: c62d d03d 4520 e93c b8b5 2abe b6d7 86bd
00000370: ae92 2dbd 723e 6b3e 4a88 82bd b339 e3bc
00000380: 1421 41be b772 40be c11b 9e3d a0cc 52be
00000390: 3411 813b 1224 753d d0d7 4b3e ac78 6b3c
000003a0: 0d8b fcbb c7d6 b23a 72b4 693e 09cb 46bd
000003b0: e5c0 d33d e826 15be 1303 c43c 634e 873c
000003c0: 32de 88bd 753d 89bd 7f04 41bc 2bde 14be
000003d0: 8bf9 dd3d 0165 22be 33ad a5bc 0ee9 1dbe
000003e0: 5583 69be 9fa2 4dbe b333 083e f9f7 373e
000003f0: 9955 053e 87f8 f63d da9f 093e 870c 0dbe

layer1.0.bias f4 [16]
-0.032854326 -0.08608298 -0.10274854 -0.08837222 0.16648689 -0.056714416 -0.21414723 0.22241616
0.2540328 -0.03866982 0.15887062 -0.056710593 -0.05992238 -0.0010144368 -0.1015299 -0.16704817
00000000: 4292 06bd 464c b0bd d46d d2bd 7ffc b4bd
00000010: 8a7b 2a3e 604d 68bd 6949 5bbe 10c1 633e
00000020: 9610 823e 3f64 1ebd fbae 223e 5e49 68bd
00000030: 2b71 75bd daf6 84ba e9ee cfbd ad0e 2bbe

layer1.1.weight f4 [16]
0.90940446 0.9205848 1.0242923 0.7740012 0.97723204 0.9116585 1.297724 1.1029063
1.1066755 1.2186944 1.0626632 1.125436 0.9837404 0.75769997 1.0195743 0.7964987
00000000: bbce 683f 72ab 6b3f 031c 833f f124 463f
00000010: e12b 7a3f 7462 693f d21b a63f 092c 8d3f
00000020: 8ba7 8d3f 2efe 9b3f 5905 883f 490e 903f
00000030: 69d6 7b3f a0f8 413f 6981 823f 57e7 4b3f

layer1.1.bias f4 [16]
-0.2767246 -0.2910447 -0.05893927 -0.37317148 -0.17544594 -0.2048762 -0.08710145 -0.07296163
-0.027271802 -0.1388499 -0.0684 -0.17625068 -0.18223561 -0.33368158 -0.09976498 -0.31093842
00000000: d9ae 8dbe d003 95be 4e6a 71bd 5510 bfbe
00000010: 1aa8 33be 11cb 51be 3f62 b2bd e86c 95bd
00000020: 1d69 dfbc ab2e 0ebe 4d15 8cbd 0f7b 34be
00000030: f99b 3abe 50d8 aabe 9551 ccbd 5233 9fbe

layer1.1.running_mean f4 [16]
-0.046602845 -0.08727958 -0.13767454 -0.041791636 0.09847385 -0.05950582 -0.34394398 0.17422223
0.17887202 -0.14798373 0.12007823 -0.13383047 -0.103561744 0.22667007 -0.12610881 -0.18320885
00000000: a0e2 3ebd a3bf b2bd 8efa 0cbe b52d 2bbd
00000010: a8ac c93d 60bc 73bd 6d19 b0be 5067 323e
00000020: 3a2a 373e 0c89 17be 93eb f53d db0a 09be
00000030: 2e18 d4bd 331c 683e ab22 01be 1a9b 3bbe

layer1.1.running_var f4 [16]
0.025697028 0.015377612 0.0319659 0.023528043 0.06571354 0.0075693447 0.104343556 0.06009387
0.04232888 0.05363745 0.04597515 0.054704215 0.08146274 0.18919727 0.028736893 0.026457941
00000000: 9382 d23c 61f2 7b3c adee 023d e2bd c03c
00000010: d294 863d 4408 f83b 13b2 d53d fd24 763d
00000020: 0c61 2d3d f1b2 5b3d 7050 3c3d 8711 603d
00000030: f0d5 a63d eebc 413e a269 eb3c 53be d83c

layer2.0.weight f4 [32, 16, 5, 5]
0.03975813 -0.04043459 -0.029650208 0.011790221 -0.066954285 -0.009466749 -0.009199648 0.035486817
-0.0050378838 -0.07135125 0.041905694 0.03338158 0.07030302 0.0011864081 0.007360305 -0.048689984
-0.03905357 0.045670662 -0.030268855 -0.01930336 -0.04736508 0.040848166 0.009219992 -0.0031127096
-0.0076654973 0.014801985 0.06280396 0.040847134 -0.010895046 0.060655434 0.028772024 -0.015845267
-0.03200743 -0.057336092 -0.020191975 -0.028072305 -0.06378529 -0.049037363 -0.03766 -0.07163595
-0.008436817 -0.038523495 -0.06376969 0.0022548623 -0.0275398 -0.042077363 0.0049356096 -0.036207754
0.041109096 0.04194841 -0.004354672 -0.020705037 0.007271174 -0.04040256 -0.07900448 -0.03741108
-0.012888248 0.055920567 0.005853782 0.008172862 -0.011117456 0.0048016477 -0.042794988 0.068215184
-0.008178702 -0.039868943 -0.0031795953 0.008259475 -0.041427605 -0.037409745 0.04530944 0.044338346
-0.018189594 0.070575535 0.018450104 -0.030032437 -0.032821838 0.005040389 0.027961742 0.026140321
-0.08670633 -0.083184734 -0.035721414 -0.07143085 -0.034548026 -0.032602612 -0.079185024 -0.029009225
-0.0065360083 -0.04883106 0.001742182 -0.028090786 -0.04231893 -0.024141427 0.022696551 0.026681526
-0.0291092 -0.029168595 -0.048377186 -0.015467803 0.05901801 0.07043163 0.09276142 0.115301035
0.10208571 -0.0065423967 -0.038960416 0.034832284 0.032258265 0.04132169 -0.058873743 -0.03016578
-0.021310002 -0.013206936 0.02972294 -0.08994906 -0.06021915 -0.0032692607 -0.026534887 -0.031132765
0.043178353 0.03291196 0.0019163515 0.0004959116 -0.031124508 0.029917942 -0.015361602 0.0048251865
0.049620587 0.0074838274 0.0373374 -0.0035594134 0.018671107 0.028329799 0.0045604813 -0.047707476
-0.053840235 -0.04938489 0.037063412 0.02370752 -0.01955495 -0.06376373 -0.033039935 -0.01207439
0.03425526 0.06430491 -0.057423435 -0.102900565 -0.015105412 -0.022105897 -0.011620304 0.111257136
0.096672356 0.18993878 0.11551394 -0.009618672 0.004461702 0.13623913 0.118505746 0.059961926
-0.0039547323 0.05704236 -0.05521246 -0.020860149 -0.046512377 0.016413303 0.012024808 0.052253984
-0.056928966 0.0049685906 0.08244379 0.12739527 0.08181358 -0.027175825 0.0045380364 -0.04843228
-0.017047415 -0.04667973 0.03957645 0.033448957 -0.024009837 0.049644846 -0.014075132 0.0011549188
0.01370799 0.018891623 0.004363998 -0.008803481 0.02539098 0.03908469 0.029860722 0.03183903
0.051109537 -0.03588967 -0.012643193 0.0067148586 0.08655978 0.02357466 0.03314642 0.020454539
-0.03539797 -0.037760124 -0.006918562 -0.038446732 0.0019210477 0.0993294 0.07103036 0.016283114
0.10457558 0.050821263 0.06058727 -0.01735883 0.014348608 0.07628578 0.07802241 0.03193888
0.0049821096 0.04960566 0.12558337 0.112992145 -0.023800986 0.045899685 0.030296464 0.0479315
0.08987283 0.101845905 -0.036657967 -0.015266659 -0.0046461746 -0.14339583 0.01859818 -0.031438157
-0.01246882 -0.041239068 -0.014090415 -0.05404233 -0.025701974 0.043205537 -0.043137535 0.012712113
0.017856631 -0.026835134 -0.088214606 -0.103144415 -0.042325534 0.09920053 -0.11408963 -0.093676984
0.0058531202 0.01962838 0.070625134 0.07260166 0.11934887 0.08731155 0.005550863 -0.0024406
00000000: 6cd9 223d be9e 25bd fee4 f2bc c52b 413c
00000010: 541f 89bd 6c1a 1bbc 1fba 16bc a05a 113d
00000020: d514 a5bb 9b20 92bd 4ea5 2b3d 20bb 083d
00000030: 08fb 8f3d 4081 9b3a b72e f13b 266f 47bd
00000040: a3f6 1fbd 2911 3b3d 64f6 f7bc 1422 9ebc
00000050: e301 42bd 6850 273d 730f 173c 9afe 4bbb
00000060: da2e fbbb 0684 723c 5d9f 803d 534f 273d
00000070: 2381 32bc d571 783d 4fb3 eb3c efcd 81bc
00000080: 391a 03bd 40d9 6abd a469 a5bc e4f7 e5bc
00000090: dda1 82bd 67db 48bd 5f41 1abd deb5 92bd
000000a0: 933a 0abc d0ca 1dbd af99 82bd 50c6 133b
000000b0: 269b e1bc 5059 2cbd e5ba a13b 954e 14bd
000000c0: 0362 283d 19d2 2b3d a3b1 8ebb 9c9d a9bc
000000d0: 0743 ee3b 287d 25bd 1acd a1bd 5c3c 19bd
000000e0: 3b29 53bc f70c 653d 15d1 bf3b 78e7 053c
000000f0: fd25 36bc 2457 9d3b cc49 2fbd 67b4 8b3d
00000100: f6ff 05bc 9e4d 23bd c260 50bb c052 073c
00000110: feaf 29bd f63a 19bd 6496 393d 209c 353d
00000120: 5802 95bc e889 903d ac24 973c 9606 f6bc
00000130: 3170 06bd d929 a53b 0610 e53c 3a24 d63c
00000140: 1793 b1bd c25c aabd 9e50 12bd 564a 92bd
00000150: 3b82 0dbd 518a 05bd c22b a2bd c1a4 edbc
00000160: 032c d6bb 1403 48bd ed59 e43a a61e e6bc
00000170: 9d56 2dbd 3ec4 c5bc 1eee b93c 3793 da3c
00000180: 6b76 eebc faf2 eebc 2827 46bd ab6c 7dbc
00000190: debc 713d 753e 903d b3f9 bd3d f322 ec3d
000001a0: 5012 d13d 9a61 d6bb f594 1fbd 4cac 0e3d
000001b0: 3e21 043d ef40 293d 9825 71bd 3a1e f7bc
000001c0: 5092 aebc e861 58bc 867d f33c 3637 b8bd
000001d0: 5ba8 76bd 1841 56bb b15f d9bc 240a ffbc
000001e0: c9db 303d b1ce 063d 162e fb3a 1000 023a
000001f0: d3f8 febc 7916 f53c 3baf 7bbc 991c 9e3b
00000200: f53e 4b3d e53a f53b 1aef 183d 0c45 69bb
00000210: 26f4 983c e513 e83c 1770 953b ea68 43bd
00000220: 9487 5cbd cf47 4abd cecf 173d 4636 c23c
00000230: b431 a0bc 8f96 82bd e254 07bd aad3 45bc
00000240: 3e4f 0c3d 4bb2 833d d634 6bbd 88bd d2bd
00000250: b17c 77bc 6d17 b5bc 1663 3ebc c8da e33d
00000260: 28fc c53d 507f 423e 9392 ec3d a297 1dbc
00000270: 7833 923b 4582 0b3e 24b3 f23d a39a 753d
00000280: b396 81bb 40a5 693d 7626 62bd e7e2 aabc
00000290: c383 3ebd 3175 863c b303 453c 4608 563d
000002a0: 592e 69bd 8fcf a23b 4ad8 a83d e873 023e
000002b0: e18d a73d d69f debc cfb3 943b ed60 46bd
000002c0: 05a7 8bbc 3f33 3fbd ea1a 223d c601 093d
000002d0: 47b0 c4bc 6558 4b3d 629b 66bc a560 973a
000002e0: 7a97 603c 9bc2 9a3c deff 8e3b 7a3c 10bc
000002f0: bf00 d03c 4517 203d 799e f43c a569 023d
00000300: 3c58 513d 0c01 13bd 6525 4fbc 5108 dc3b
00000310: 4146 b13d a51f c13c 8ac4 073d 4790 a73c
00000320: 76fd 10bd 5caa 1abd 1bb5 e2bb 527a 1dbd
00000330: aacb fb3a 366d cb3d 5e78 913d 2a64 853c
00000340: b92b d63d f529 503d 5b2a 783d 1b34 8ebc
00000350: 6d16 6b3c b83b 9c3d 37ca 9f3d 58d2 023d
00000360: f740 a33b 4e2f 4b3d ed98 003e 6d68 e73d
00000370: 49fa c2bc 4f01 3c3d 4a30 f83c d253 443d
00000380: 3f0f b83d 9694 d03d aa26 16bd 0221 7abc
00000390: f03e 98bb 5bd6 12be 365b 983c 4cc5 00bd
000003a0: 064a 4cbc 4cea 28bd 7cdb 66bc 7d5b 5dbd
000003b0: f28c d2bc 4af8 303d fcb0 30bd 7746 503c
000003c0: 1248 923c 5bd5 dbbc dca9 b4bd 613d d3bd
000003d0: 8a5d 2dbd a629 cb3d d3a7 e9bd b8d9 bfbd
000003e0: 88cb bf3b b2cb a03c e9a3 903d 2eb0 943d
000003f0: 2e6d f43d 66d0 b23d 04e4 b53b 79f2 1fbb

layer2.0.bias f4 [32]
-0.011689373 0.055456314 -0.009950493 -0.0012747517 0.0010780095 -0.015333764 0.093985304 -0.05343757
-0.017454935 0.052613463 0.032638326 -0.020572994 -0.04204653 -0.037250545 -0.10456974 -0.02650638
0.032044843 -0.10198531 -0.06511081 -0.096130036 -0.025672287 0.02733668 0.029393584 0.03426268
-0.017729495 0.010881413 0.061146606 0.040675696 -0.03837813 -0.0408726 0.01878332 0.048442952
00000000: c984 3fbc 2926 633d 6507 23bc 9215 a7ba
00000010: ff4b 8d3a 783a 7bbc 5e7b c03d 5ae1 5abd
00000020: a7fd 8ebc 3781 573d c4af 053d b288 a8bc
00000030: fb38 2cbd 0794 18bd a928 d6bd e823 d9bc
00000040: 7441 033d addd d0bd d158 85bd d3df c4bd
00000050: b04e d2bc 2cf1 df3c d0ca f03c 0657 0c3d
00000060: 723d 91bc f447 323c dd74 7a3d 8f9b 263d
00000070: 6332 1dbd 076a 27bd 7adf 993c 1e6c 463d

layer2.1.weight f4 [32]
1.1257268 1.0538245 1.1809556 1.1065582 1.129553 1.0857884 1.0732313 1.2889043
1.1792985 1.0888139 1.0808583 1.115125 1.2102376 1.132521 1.1254815 1.1248682
1.0914495 1.1477387 1.3568616 1.1389896 1.1526103 1.1733686 1.0674992 1.1089841
1.085005 1.0818951 1.0865167 1.1226579 1.0617944 1.0959488 1.173335 1.1931232
00000000: d117 903f b9e3 863f 8e29 973f b3a3 8d3f
00000010: 3195 903f 1dfb 8a3f a55f 893f d1fa a43f
00000020: 41f3 963f 415e 8b3f 9159 8a3f 6abc 8e3f
00000030: 11e9 9a3f 73f6 903f c70f 903f aefb 8f3f
00000040: 9eb4 8b3f 1ae9 923f a4ad ad3f 69ca 913f
00000050: bc88 933f f130 963f d0a3 883f 31f3 8d3f
00000060: 72e1 8a3f 8a7b 8a3f fb12 8b3f 41b3 8f3f
00000070: e1e8 873f 0d48 8c3f d72f 963f 43b8 983f

layer2.1.bias f4 [32]
-0.15467231 -0.17124347 -0.07702785 -0.110588305 -0.13010827 -0.20331496 -0.17207445 -0.23243889
-0.149555 -0.22013883 -0.16578367 -0.09966471 -0.07533432 -0.16873583 -0.1015078 -0.19356449
-0.1652806 -0.0954937 -0.2572181 -0.19506998 -0.16516352 -0.11250378 -0.15811884 -0.19113487
-0.12627116 -0.15276434 -0.098679304 -0.10573456 -0.12622963 -0.12296599 -0.2930984 -0.192511
00000000: 6b62 1ebe 735a 2fbe c7c0 9dbd 1f7c e2bd
00000010: 1a3b 05be cc31 50be 4934 30be 7604 6ebe
00000020: f224 19be 136c 61be 32c3 29be 031d ccbd
00000030: e148 9abd 16c9 2cbe 52e3 cfbd c535 46be
00000040: 513f 29be 3392 c3bd 17b2 83be 6dc0 47be
00000050: a020 29be 6268 e6bd e8e9 21be dcb8 43be
00000060: 3a4d 01be 416e 1cbe 6018 cabd 5c8b d8bd
00000070: 5742 01be 98d5 fbbd fe10 96be 9b21 45be

layer2.1.running_mean f4 [32]
0.25712547 -0.6556392 0.034595612 -0.40536365 -0.5816711 -0.19491236 -0.23391639 -0.40054736
-0.14118156 -0.027321577 0.036099993 -0.3119092 0.8219827 -0.44109908 -0.4931301 0.14676432
-0.1834539 -0.13337173 -0.20741422 0.45869234 -0.5299388 1.1956161 -0.30249283 -0.24631281
-0.61010164 -0.03496084 -0.0030286603 0.27673873 0.28364587 -0.4142476 -0.3903753 0.04028741
00000000: f3a5 833e f8d7 27bf 21b4 0d3d d38b cfbe
00000010: 66e8 14bf 1b97 47be c787 6fbe 8b14 cdbe
00000020: e691 10be 80d1 dfbc 96dd 133d 90b2 9fbe
00000030: 756d 523f bdd7 e1be 8c7b fcbe 6349 163e
00000040: 57db 3bbe 9992 08be 6564 54be b9d9 ea3e
00000050: 12aa 07bf f309 993f 57e0 9abe 6d39 7cbe
00000060: 9f2f 1cbf 1933 0fbd 7d7c 46bb b3b0 8d3e
00000070: 083a 913e 4318 d4be 45df c7be 6904 253d

layer2.1.running_var f4 [32]
0.97096294 0.9163799 1.2520517 1.0141015 0.95343536 1.127195 0.80752575 0.881837
0.78164667 1.3132129 0.7631769 1.1373036 1.1124479 0.88897014 0.6945565 0.9940109
0.81758803 1.2997948 1.1028681 0.8913911 0.73964655 0.7851422 1.2802805 0.92816776
0.71037847 1.3586333 0.8894266 0.9549899 0.7292672 1.2890337 1.2773497 0.88849133
00000000: 0791 783f e097 6a3f 3b43 a03f 14ce 813f
00000010: 5714 743f ed47 903f 02ba 4e3f 12c0 613f
00000020: ff19 483f 5c17 a83f 905f 433f 2a93 913f
00000030: b164 8e3f 8c93 633f 74ce 313f 8077 7e3f
00000040: 734d 513f ad5f a63f c82a 8d3f 3532 643f
00000050: 7a59 3d3f 14ff 483f 3be0 a33f 679c 6d3f
00000060: 5ddb 353f b2e7 ad3f 76b1 633f 387a 743f
00000070: 41b1 3a3f 0eff a43f 3280 a33f 2b74 633f

fc.weight f4 [10, 1568]
-0.012951572 -0.028361931 -0.055746973 0.020604461 -0.005291851 -0.009192004 -0.011660433 -0.03788271
0.0028851125 0.008446405 0.05145204 -0.030955492 0.017762981 -0.035994463 0.0030042438 -0.01990107
0.030681113 -0.0019881523 -0.014427489 0.0002881336 -0.0125967655 -0.001142752 0.046995077 0.043043006
-0.017685743 -0.054390017 -0.065881476 -0.12170426 -0.0033741205 -0.056190852 -0.06836269 -0.0674218
-0.076482214 -0.12577574 -0.039236795 -0.07339276 -0.06732084 -0.032107808 -0.012539973 0.027586611
0.03531671 0.040547397 -0.06570287 -0.016366623 0.03421122 0.059835725 0.04482092 0.024158098
0.043096066 0.03986633 0.018563084 0.061452985 -0.032146018 0.0053458707 -0.005550262 0.042178396
-0.041877035 -0.08019217 0.035723235 -0.0032687995 0.006472037 0.04853196 0.033620365 -0.034157906
-0.007143573 0.020232953 0.03614114 0.095371224 -0.04210799 -0.0059058215 0.021751659 -0.027039042
-0.016944692 0.04266459 0.07241381 0.10189909 -0.019820547 0.046307135 0.027868133 0.022365976
-0.027456757 0.048973966 0.033567876 0.027928986 0.006216884 0.009731499 0.06832251 -0.13228613
-0.009135633 0.022020642 0.03194269 0.06038282 0.0548656 0.06579666 -0.08222404 -0.20414928
-0.053865876 0.051476985 -0.026986731 -0.007226336 -0.01696343 -0.03674709 0.0018730506 -0.04124039
-0.007487694 0.012617284 0.024691174 0.045258287 -0.10738829 0.0659389 0.057819825 0.0029253368
0.0009454015 -0.0031768994 0.013578231 0.07904354 0.07767851 -0.0014389392 0.011749289 -0.039162915
-0.07578993 -0.008302715 -0.0020997562 -0.017942946 -0.08429647 -0.05233221 -0.022314481 -0.03392281
-0.08632148 -0.21830274 -0.1684767 -0.052242506 -0.073609754 0.0036724503 0.019403653 -0.02473896
-0.009153444 -0.039123777 -0.012268301 -0.037631195 -0.0032102184 0.051951077 -0.0018333286 0.0033061649
0.048782658 0.025109055 0.0013023542 -0.02522172 -0.0685607 -0.044811595 -0.04289383 -0.036481056
-0.036135346 0.009565401 -0.13506591 -0.020332415 -0.022235835 -0.07183758 -0.03906149 0.034956392
-0.07182911 -0.001429583 0.0013767104 0.037069112 -0.056434676 0.08229868 0.042317953 -0.011301997
0.0059329807 0.049245857 0.06312131 -0.030022033 0.03760717 0.006814323 0.033383958 0.05514066
0.03053612 0.0056957547 -0.04107479 -0.004650035 0.013107375 -0.007905935 0.024029285 -0.0069673234
-0.05281521 -0.15019195 -0.121119805 -0.008508642 0.01706563 -0.040540226 -0.04197273 0.031405676
-0.03652341 -0.042124417 -0.11620213 0.000848971 0.019924827 -0.049478013 -0.05672402 -0.03296422
0.0046977587 -0.05096953 0.017099887 -0.02180271 -0.10846532 -0.047245048 -0.03867049 -0.03448499
-0.08944594 0.029403152 -0.06041074 -0.046355117 0.069556184 0.06563233 0.019582907 -0.028838724
0.036858074 -0.013804405 -0.06752023 0.024137806 -0.008204851 -0.093823574 0.033466246 0.03312069
-0.0021175302 -0.044771943 0.016109759 0.044578686 -0.0038145445 -0.03764747 0.0039550727 0.025198359
0.0120945675 0.050531242 0.066939086 0.067484334 -0.024676386 -0.026057623 -0.006498637 -0.07440385
-0.1311856 -0.045955576 0.08044842 0.061457276 0.024202814 -0.030648686 0.001942282 -0.012711335
-0.012638815 0.015248738 0.025951112 -0.03942742 0.021750832 -0.020247348 0.030347046 -0.004514004
00000000: d532 54bc 4857 e8bc f056 64bd b0ca a83c
00000010: 4367 adbb 0f9a 16bc 670b 3fbc e72a 1bbd
00000020: 2814 3d3b ca62 0a3c 60bf 523d 5f96 fdbc
00000030: ac83 913c ee6e 13bd d9e2 443b 9207 a3bc
00000040: f556 fb3c a94b 02bb 4661 6cbc a310 9739
00000050: aa62 4ebc 65c8 95ba e97d 403d dd4d 303d
00000060: b1e1 90bc 11c8 5ebd deec 86bd 1540 f9bd
00000070: 5920 5dbb 6128 66bd bd01 8cbd 7114 8abd
00000080: b5a2 9cbd 5bcb 00be c3b6 20bd f14e 96bd
00000090: 82df 89bd 7a83 03bd 7574 4dbc 51fd e13c
000000a0: 41a8 103d 0715 263d 3a8f 86bd 4c13 86bc
000000b0: 1021 0c3d 4e16 753d 2496 373d 34e7 c53c
000000c0: 8085 303d e04a 233d 9c11 983c 20b6 7b3d
000000d0: 8bab 03bd 6a2c af3b f9de b5bb 41c3 2c3d
000000e0: 4187 2bbd cb3b a4bd 8752 123d 5b39 56bb
000000f0: 6213 d43b 73c9 463d 82b5 093d 29e9 0bbd
00000100: a214 eabb 94bf a53c bb08 143d fd51 c33d
00000110: 6d79 2cbd 9f85 c1bb 8930 b23c fb80 ddbc
00000120: 98cf 8abc 11c1 2e3d b14d 943d 78b0 d03d
00000130: b35e a2bc 8dac 3d3d b64b e43c da38 b73c
00000140: feec e0bc ed98 483d 787e 093d 54cb e43c
00000150: 01b7 cb3b dd70 1f3c acec 8b3d 0476 07be
00000160: 9fad 15bc a264 b43c 57d6 023d fa53 773d
00000170: c0ba 603d 66c0 863d 1465 a8bd 820c 51be
00000180: 77a2 5cbd 88d9 523d 4713 ddbc e6ca ecbb
00000190: e4f6 8abc 1e84 16bd 2681 f53a afeb 28bd
000001a0: 545b f5bb bab8 4e3c 2545 ca3c c160 393d
000001b0: 64ee dbbd f90a 873d 7bd4 6c3d 02b7 3f3b
000001c0: d2d4 773a 8733 50bb 3b77 5e3c 94e1 a13d
000001d0: e915 9f3d ca9a bcba 1780 403c 4b69 20bd
000001e0: c037 9bbd 1c08 08bc 109c 09bb 16fd 92bc
000001f0: a1a3 acbd 4d5a 56bd dccc b6bc a5f2 0abd
00000200: 51c9 b0bd c18a 5fbe 2885 2cbe 3dfc 55bd
00000210: b6c0 96bd 7ead 703b 69f4 9e3c 5ca9 cabc
00000220: 54f8 15bc 4140 20bd fc00 49bc 2b23 1abd
00000230: 8762 52bb a7ca 543d 4d4c f0ba 3eac 583b
00000240: 53d0 473d 81b1 cd3c c1b3 aa3a c89d cebc
00000250: 8d69 8cbd 5d8c 37bd 71b1 2fbd 296d 15bd
00000260: a802 14bd 33b8 1c3c b84e 0abe 2a90 a6bc
00000270: ed27 b6bc 951f 93bd f1fe 1fbd 6f2e 0f3d
00000280: 241b 93bd d860 bbba bc72 b43a c8d5 173d
00000290: 0c28 67bd 368c a83d 9755 2d3d 032c 39bc
000002a0: 7369 c23b 06b6 493d bf45 813d c4f0 f5bc
000002b0: fa09 1a3d af4a df3b 9ebd 083d 2cdb 613d
000002c0: e326 fa3c 74a3 ba3b 0a3e 28bd 525f 98bb
000002d0: 51c0 563c e587 01bc 10d9 c43c 254e e4bb
000002e0: c354 58bd ebcb 19be a90d f8bd d567 0bbc
000002f0: 38cd 8b3c 820d 26bd 99eb 2bbd 3da3 003d
00000300: 9299 15bd a78a 2cbd 62fb edbd 7b8d 5e3a
00000310: 6439 a33c 75a9 4abd 7257 68bd 7d05 07bd
00000320: a8ef 993b 6dc5 50bd 1015 8c3c 999b b2bc
00000330: 1123 debd 0684 41bd f364 1ebd 2240 0dbd
00000340: 6f2f b7bd e1de f03c 4171 77bd ddde 3dbd
00000350: 7973 8e3d 3e6a 863d 556c a03c 303f ecbc
00000360: 7ef8 163d df2b 62bc 0c48 8abd a6bc c53c
00000370: a46d 06bc 9326 c0bd e713 093d 90a9 073d
00000380: 43c6 0abb c962 37bd 9df8 833c 2498 363d
00000390: 70fd 79bb 3c34 1abd 8e99 813b ca6c ce3c
000003a0: 4b28 463c d9f9 4e3d 5c17 893d 3a35 8a3d
000003b0: 2226 cabc cc76 d5bc 85f2 d4bb 0c61 98bd
000003c0: 8555 06be ea3b 3cbd 24c2 a43d a0ba 7b3d
000003d0: fb44 c63c f412 fbbc 2b94 fe3a 3443 50bc
000003e0: 0813 4fbc d8d5 793c 6d97 d43c a57e 21bd
000003f0: cd2e b23c c4dd a5bc 5e9a f83c 36ea 93bb

fc.bias f4 [10]
0.0003746392 0.03946979 0.008259641 -0.005491898 0.009851778 0.015411947 -0.013887829 -0.00835742
-0.020904813 -0.009520844
00000000: 396b c439 13ab 213d 7253 073c 61f5 b3bb
00000010: 5a69 213c 6482 7c3c c789 63bc 8fed 08bc
00000020: 9240 abbc 50fd 1bbc
